…
ilab/ewillis/pca_contrastive/mri_data/marksheet_folds.csv'), train_folds=['fold1', 'fold2', 'fold3', 'fold4'], val_folds=['fold0'], epochs=200, batch_size=1, lr=0.0001, weight_decay=0.0001, num_workers=2, proj_dim=128, model_type='vit_b', device=None, out_dir=PosixPath('/project/aip-medilab/ewillis/pca_contrastive/mri_model_medsam_finetune/results/token_sttention_200_epochs'), max_lr_epochs=None, tiny_total=None, tiny_per_class=None, use_weighted_sampler=True, confmat_normalize='true')
Using device: cuda
ISUPMedSAM(
  (image_encoder): ImageEncoderViT(
    (patch_embed): PatchEmbed(
      (proj): Conv2d(3, 768, kernel_size=(16, 16), stride=(16, 16))
    )
    (blocks): ModuleList(
      (0-11): 12 x Block(
        (norm1): LayerNorm((768,), eps=1e-06, elementwise_affine=True)
        (attn): Attention(
          (qkv): Linear(in_features=768, out_features=2304, bias=True)
          (proj): Linear(in_features=768, out_features=768, bias=True)
        )
        (norm2): LayerNorm((768,), eps=1e-06, elementwise_affine=True)
        (mlp): MLPBlock(
          (lin1): Linear(in_features=768, out_features=3072, bias=True)
          (lin2): Linear(in_features=3072, out_features=768, bias=True)
          (act): GELU(approximate='none')
        )
      )
    )
    (neck): Identity()
  )
  (token_pool): TokenAttnPool(
    (fc): Linear(in_features=768, out_features=128, bias=True)
    (gate): Linear(in_features=768, out_features=128, bias=True)
    (a): Linear(in_features=128, out_features=1, bias=True)
    (tanh): Tanh()
    (sigmoid): Sigmoid()
  )
  (projector): ABMILProjector(
    (attn_fc): Sequential(
      (0): Linear(in_features=768, out_features=256, bias=True)
      (1): Tanh()
    )
    (attn_score): Linear(in_features=256, out_features=1, bias=True)
    (embed_head): Sequential(
      (0): Linear(in_features=768, out_features=128, bias=True)
      (1): ReLU()
      (2): LayerNorm((128,), eps=1e-05, elementwise_affine=True)
    )
  )
  (classifier): Linear(in_features=128, out_features=6, bias=True)
)
Training cases: 1200, Validation cases: 300
Class weights: tensor([0.1082, 0.4218, 0.3992, 0.9398, 2.3201, 1.8108], device='cuda:0')
Epoch 1/200 | Train Loss: 1.8420, Train Acc: 0.1875 | Val Loss: 1.9118, Val Acc: 0.0267, Val AUC: nan, Val Balanced Acc: 0.1439 | Val Class Acc: {0: 0.0, 1: 0.0, 2: 0.0, 3: 0.0, 4: 0.5, 5: 0.36363636363636365}
Validation Confusion Matrix (normalize=true):
…
